Networks/doubleIntegratorLowLip.pth (torch, 2583 bytes, 5 tensors)

Linear.0.weight f4 [10, 2]
0	0xbca4ff04	-0.020141132
1	0x3e9b3005	0.30310073
2	0xbe71cd28	-0.23613417
3	0x3dd36609	0.10322196
4	0x3f161484	0.58625054
5	0xbdb5ce3f	-0.08877229
6	0xbefec7b8	-0.49761748
7	0x3f3564cc	0.7085693
8	0xbeeafdb5	-0.45896688
9	0xbee10a69	-0.43953255
10	0x3e58cbad	0.21171446
11	0xbeb074bf	-0.3446407
12	0x3e9fcb6b	0.31209883
13	0xbdb818ad	-0.089890815
14	0xbd12ea44	-0.035867944
15	0xbee0b349	-0.43886784
16	0xbec0703b	-0.37585625
17	0xbe090e55	-0.13384373
18	0x3f39adf2	0.72531044
19	0x3f69529c	0.91141677

Linear.0.bias f4 [10]
0	0x3f0ee013	0.5581066
1	0xbf074cf6	-0.5285181
2	0x3db4a209	0.08819968
3	0x3f0facd5	0.56123096
4	0x3d529eb6	0.05142089
5	0x3ef831cf	0.484755
6	0xbdac7655	-0.084210075
7	0x3eddc79d	0.43316355
8	0x3e67d714	0.2264064
9	0x3ef81174	0.48450816

Linear.2.weight f4 [5, 10]
0	0xbe30b14c	-0.17255133
1	0x3dfc795c	0.12327835
2	0xbd2d061a	-0.042242147
3	0xbdba8e6b	-0.09109195
4	0xbe039d12	-0.12852886
5	0xbe5efb64	-0.21775585
6	0xbd1c5ff2	-0.038177438
7	0xbe602d7b	-0.2189235
8	0xbd872e1c	-0.066005915
9	0xbe9f226c	-0.3108095
10	0xbc8b1566	-0.016977977
11	0x3ece9d4c	0.40354383
12	0x3d7755a8	0.060384423
13	0x3f08d06e	0.5344304
14	0xbe6d0c82	-0.23149303
15	0xbedce9e6	-0.431472
16	0xbd35ea37	-0.044412818
17	0x3e2456e6	0.16048774
18	0x3e863594	0.26212752
19	0xbe38b2ad	-0.1803691
20	0x3e7f18b4	0.24911767
21	0xbe669635	-0.22518237
22	0x3e64a710	0.22329354
23	0x3e6804aa	0.22658029
24	0xbe4b3d4e	-0.19847605
25	0x3e19350d	0.14961644
26	0x3f143350	0.57890797
27	0x3d5ef4a8	0.05443254
28	0xbe61bce0	-0.22044706
29	0x3ef6b1c5	0.48182502
30	0x3edd83b0	0.43264532
31	0x3ebbbfbb	0.36669716
32	0xbf05672c	-0.5211055
33	0x3f1ea1ce	0.61965644
34	0xbdb7639c	-0.08954546
35	0xbf1be527	-0.60896534
36	0x3ed34f63	0.41271505
37	0xbe6bc9b1	-0.23026158
38	0xbe161f91	-0.14660479
39	0x3cdb80e0	0.02679485
40	0xbdda2cdb	-0.10653087
41	0x3e92efa0	0.28698444
42	0x3d5c6f06	0.053816818
43	0xbd5ea2e9	-0.054354582
44	0xbeef8c13	-0.46786556
45	0x3f0ca839	0.5494419
46	0xbc377ed2	-0.01119967
47	0x3f316f09	0.6931005
48	0xbed0de70	-0.40794706
49	0xbeb3a6c3	-0.35088167

Linear.2.bias f4 [5]
0	0xbe99ebfe	-0.3006286
1	0x3e70d944	0.2352038
2	0x3e6e9035	0.23297198
3	0xbe542917	-0.207188
4	0x3c96fa56	0.018429916

Linear.4.weight f4 [1, 5]
0	0xbe3770fa	-0.17914191
1	0x3ec5c655	0.38627878
2	0xbeae627b	-0.3405951
3	0x3ee345e4	0.4438926
4	0x3f471e6f	0.7778081
